ops:
  ADD:
    - dtype:
        type_dst: f32
        type_src: f32
      cases:
        - name: ffn_inp-0
          ne: [4096, 1, 1, 1]
          op_params: []
          sources: "f32[4096,1,1,1],f32[4096,1,1,1]"
        - name: ffn_inp-0
          ne: [4096, 512, 1, 1]
          op_params: []
          sources: "f32[4096,512,1,1],f32[4096,512,1,1]"
  CPY:
    - dtype:
        type_dst: f16
        type_src: f32
      cases:
        - name: attn_inp_kq_mask
          ne: [8192, 1, 1, 1]
          op_params: []
          sources: "f32[8192,1,1,1],f16[8192,1,1,1]"
        - name: attn_inp_kq_mask
          ne: [8192, 512, 1, 1]
          op_params: []
          sources: "f32[8192,512,1,1],f16[8192,512,1,1]"
  FLASH_ATTN_EXT:
    - dtype:
        type_dst: f32
        type_src: f32
      cases:
        - name: __fattn__-0
          ne: [128, 32, 1, 1]
          op_params: ["0:1035273459", "3:10"]
          sources: "f32[128,1,32,1]nb[4,16384,512,16384],f16[128,8192,8,1]nb[2,2048,256,16777216],f16[128,8192,8,1]nb[2,2048,256,16777216],f16[8192,1,1,1]"
        - name: __fattn__-0
          ne: [128, 32, 512, 1]
          op_params: ["0:1035273459", "3:10"]
          sources: "f32[128,512,32,1]nb[4,16384,512,8388608],f16[128,8192,8,1]nb[2,2048,256,16777216],f16[128,8192,8,1]nb[2,2048,256,16777216],f16[8192,512,1,1]"
  GET_ROWS:
    - dtype:
        type_dst: f32
        type_src: f32
      cases:
        - name: node_986
          ne: [4096, 1, 1, 1]
          op_params: []
          sources: "f32[4096,1,1,1],i32[1,1,1,1]"
        - name: node_986
          ne: [4096, 512, 1, 1]
          op_params: []
          sources: "f32[4096,512,1,1],i32[512,1,1,1]"
    - dtype:
        type_dst: f32
        type_src: q8_0
      cases:
        - name: embd
          ne: [4096, 1, 1, 1]
          op_params: []
          sources: "q8_0[4096,128256,1,1],i32[1,1,1,1]"
        - name: embd
          ne: [4096, 512, 1, 1]
          op_params: []
          sources: "q8_0[4096,128256,1,1],i32[512,1,1,1]"
  MUL:
    - dtype:
        type_dst: f32
        type_src: f32
      cases:
        - name: attn_norm-0
          ne: [4096, 1, 1, 1]
          op_params: []
          sources: "f32[4096,1,1,1],f32[4096,1,1,1]"
        - name: attn_norm-0
          ne: [4096, 512, 1, 1]
          op_params: []
          sources: "f32[4096,512,1,1],f32[4096,1,1,1]"
  MUL_MAT:
    - dtype:
        type_dst: f32
        type_src: q8_0
      cases:
        - name: Qcur-0
          ne: [4096, 1, 1, 1]
          op_params: []
          sources: "q8_0[4096,4096,1,1],f32[4096,1,1,1]"
        - name: Qcur-0
          ne: [4096, 512, 1, 1]
          op_params: []
          sources: "q8_0[4096,4096,1,1],f32[4096,512,1,1]"
        - name: Vcur-0
          ne: [1024, 1, 1, 1]
          op_params: []
          sources: "q8_0[4096,1024,1,1],f32[4096,1,1,1]"
        - name: Vcur-0
          ne: [1024, 512, 1, 1]
          op_params: []
          sources: "q8_0[4096,1024,1,1],f32[4096,512,1,1]"
        - name: ffn_gate-0
          ne: [14336, 1, 1, 1]
          op_params: []
          sources: "q8_0[4096,14336,1,1],f32[4096,1,1,1]"
        - name: ffn_gate-0
          ne: [14336, 512, 1, 1]
          op_params: []
          sources: "q8_0[4096,14336,1,1],f32[4096,512,1,1]"
        - name: ffn_out-0
          ne: [4096, 1, 1, 1]
          op_params: []
          sources: "q8_0[14336,4096,1,1],f32[14336,1,1,1]"
        - name: ffn_out-0
          ne: [4096, 512, 1, 1]
          op_params: []
          sources: "q8_0[14336,4096,1,1],f32[14336,512,1,1]"
        - name: result_output
          ne: [128256, 1, 1, 1]
          op_params: []
          sources: "q8_0[4096,128256,1,1],f32[4096,1,1,1]"
        - name: result_output
          ne: [128256, 512, 1, 1]
          op_params: []
          sources: "q8_0[4096,128256,1,1],f32[4096,512,1,1]"
  RMS_NORM:
    - dtype:
        type_dst: f32
        type_src: f32
      cases:
        - name: norm-0
          ne: [4096, 1, 1, 1]
          op_params: ["0:925353388"]
          sources: "f32[4096,1,1,1]"
        - name: norm-0
          ne: [4096, 512, 1, 1]
          op_params: ["0:925353388"]
          sources: "f32[4096,512,1,1]"
  ROPE:
    - dtype:
        type_dst: f32
        type_src: f32
      cases:
        - name: Kcur-0
          ne: [128, 8, 1, 1]
          op_params: ["1:128", "4:8192", "5:1223959552", "6:1065353216", "8:1065353216", "9:1107296256", "10:1065353216"]
          sources: "f32[128,8,1,1],i32[1,1,1,1]"
        - name: Kcur-0
          ne: [128, 8, 512, 1]
          op_params: ["1:128", "4:8192", "5:1223959552", "6:1065353216", "8:1065353216", "9:1107296256", "10:1065353216"]
          sources: "f32[128,8,512,1],i32[512,1,1,1]"
        - name: Qcur-0
          ne: [128, 32, 1, 1]
          op_params: ["1:128", "4:8192", "5:1223959552", "6:1065353216", "8:1065353216", "9:1107296256", "10:1065353216"]
          sources: "f32[128,32,1,1],i32[1,1,1,1]"
        - name: Qcur-0
          ne: [128, 32, 512, 1]
          op_params: ["1:128", "4:8192", "5:1223959552", "6:1065353216", "8:1065353216", "9:1107296256", "10:1065353216"]
          sources: "f32[128,32,512,1],i32[512,1,1,1]"
  SET_ROWS:
    - dtype:
        type_dst: f16
        type_src: f32
      cases:
        - name: cache_k_l0
          ne: [1024, 8192, 1, 1]
          op_params: []
          sources: "f32[1024,1,1,1],i64[1,1,1,1],f16[1024,8192,1,1]"
        - name: cache_k_l0
          ne: [1024, 8192, 1, 1]
          op_params: []
          sources: "f32[1024,512,1,1],i64[512,1,1,1],f16[1024,8192,1,1]"
  SWIGLU:
    - dtype:
        type_dst: f32
        type_src: f32
      cases:
        - name: ffn_swiglu-0
          ne: [14336, 1, 1, 1]
          op_params: ["0:2"]
          sources: "f32[14336,1,1,1],f32[14336,1,1,1]"
        - name: ffn_swiglu-0
          ne: [14336, 512, 1, 1]
          op_params: ["0:2"]
          sources: "f32[14336,512,1,1],f32[14336,512,1,1]"
